{"format": "layers-model", "generatedBy": "keras v2.9.0", "convertedBy": "TensorFlow.js Converter v3.17.0", "modelTopology": {"keras_version": "2.9.0", "backend": "tensorflow", "model_config": {"class_name": "Sequential", "config": {"name": "sequential", "layers": [{"class_name": "InputLayer", "config": {"batch_input_shape": [null, 15, 61], "dtype": "float32", "sparse": false, "ragged": false, "name": "bidirectional_input"}}, {"class_name": "Bidirectional", "config": {"name": "bidirectional", "trainable": true, "dtype": "float32", "layer": {"class_name": "LSTM", "config": {"name": "lstm", "trainable": true, "batch_input_shape": [null, 15, 61], "dtype": "float32", "return_sequences": true, "return_state": false, "go_backwards": false, "stateful": false, "unroll": false, "time_major": false, "units": 64, "activation": "tanh", "recurrent_activation": "sigmoid", "use_bias": true, "kernel_initializer": {"class_name": "GlorotUniform", "config": {"seed": null}}, "recurrent_initializer": {"class_name": "Orthogonal", "config": {"gain": 1.0, "seed": null}}, "bias_initializer": {"class_name": "Zeros", "config": {}}, "unit_forget_bias": true, "kernel_regularizer": null, "recurrent_regularizer": null, "bias_regularizer": null, "activity_regularizer": null, "kernel_constraint": null, "recurrent_constraint": null, "bias_constraint": null, "dropout": 0.0, "recurrent_dropout": 0.0, "implementation": 2}}, "merge_mode": "concat"}}, {"class_name": "LSTM", "config": {"name": "lstm_1", "trainable": true, "dtype": "float32", "return_sequences": true, "return_state": false, "go_backwards": false, "stateful": false, "unroll": false, "time_major": false, "units": 128, "activation": "tanh", "recurrent_activation": "sigmoid", "use_bias": true, "kernel_initializer": {"class_name": "GlorotUniform", "config": {"seed": null}}, "recurrent_initializer": {"class_name": "Orthogonal", "config": {"gain": 1.0, "seed": null}}, "bias_initializer": {"class_name": "Zeros", "config": {}}, "unit_forget_bias": true, "kernel_regularizer": null, "recurrent_regularizer": null, "bias_regularizer": null, "activity_regularizer": null, "kernel_constraint": null, "recurrent_constraint": null, "bias_constraint": null, "dropout": 0.0, "recurrent_dropout": 0.0, "implementation": 2}}, {"class_name": "LSTM", "config": {"name": "lstm_2", "trainable": true, "dtype": "float32", "return_sequences": false, "return_state": false, "go_backwards": false, "stateful": false, "unroll": false, "time_major": false, "units": 64, "activation": "tanh", "recurrent_activation": "sigmoid", "use_bias": true, "kernel_initializer": {"class_name": "GlorotUniform", "config": {"seed": null}}, "recurrent_initializer": {"class_name": "Orthogonal", "config": {"gain": 1.0, "seed": null}}, "bias_initializer": {"class_name": "Zeros", "config": {}}, "unit_forget_bias": true, "kernel_regularizer": null, "recurrent_regularizer": null, "bias_regularizer": null, "activity_regularizer": null, "kernel_constraint": null, "recurrent_constraint": null, "bias_constraint": null, "dropout": 0.0, "recurrent_dropout": 0.0, "implementation": 2}}, {"class_name": "Dense", "config": {"name": "dense", "trainable": true, "dtype": "float32", "units": 32, "activation": "relu", "use_bias": true, "kernel_initializer": {"class_name": "GlorotUniform", "config": {"seed": null}}, "bias_initializer": {"class_name": "Zeros", "config": {}}, "kernel_regularizer": null, "bias_regularizer": null, "activity_regularizer": null, "kernel_constraint": null, "bias_constraint": null}}, {"class_name": "Dense", "config": {"name": "dense_1", "trainable": true, "dtype": "float32", "units": 16, "activation": "relu", "use_bias": true, "kernel_initializer": {"class_name": "GlorotUniform", "config": {"seed": null}}, "bias_initializer": {"class_name": "Zeros", "config": {}}, "kernel_regularizer": null, "bias_regularizer": null, "activity_regularizer": null, "kernel_constraint": null, "bias_constraint": null}}, {"class_name": "Dense", "config": {"name": "dense_2", "trainable": true, "dtype": "float32", "units": 2, "activation": "softmax", "use_bias": true, "kernel_initializer": {"class_name": "GlorotUniform", "config": {"seed": null}}, "bias_initializer": {"class_name": "Zeros", "config": {}}, "kernel_regularizer": null, "bias_regularizer": null, "activity_regularizer": null, "kernel_constraint": null, "bias_constraint": null}}]}}, "training_config": {"loss": "categorical_crossentropy", "metrics": [[{"class_name": "MeanMetricWrapper", "config": {"name": "accuracy", "dtype": "float32", "fn": "categorical_accuracy"}}, {"class_name": "AUC", "config": {"name": "auc", "dtype": "float32", "num_thresholds": 200, "curve": "ROC", "summation_method": "interpolation", "multi_label": false, "label_weights": null}}, {"class_name": "Precision", "config": {"name": "precision", "dtype": "float32", "thresholds": null, "top_k": null, "class_id": null}}, {"class_name": "Recall", "config": {"name": "recall", "dtype": "float32", "thresholds": null, "top_k": null, "class_id": null}}]], "weighted_metrics": null, "loss_weights": null, "optimizer_config": {"class_name": "Adam", "config": {"name": "Adam", "learning_rate": 0.0010000000474974513, "decay": 0.0, "beta_1": 0.8999999761581421, "beta_2": 0.9990000128746033, "epsilon": 1e-07, "amsgrad": false}}}}, "weightsManifest": [{"paths": ["group1-shard1of1.bin"], "weights": [{"name": "bidirectional/forward_lstm/lstm_cell_6/kernel", "shape": [61, 256], "dtype": "float32"}, {"name": "bidirectional/forward_lstm/lstm_cell_6/recurrent_kernel", "shape": [64, 256], "dtype": "float32"}, {"name": "bidirectional/forward_lstm/lstm_cell_6/bias", "shape": [256], "dtype": "float32"}, {"name": "bidirectional/backward_lstm/lstm_cell_7/kernel", "shape": [61, 256], "dtype": "float32"}, {"name": "bidirectional/backward_lstm/lstm_cell_7/recurrent_kernel", "shape": [64, 256], "dtype": "float32"}, {"name": "bidirectional/backward_lstm/lstm_cell_7/bias", "shape": [256], "dtype": "float32"}, {"name": "dense/kernel", "shape": [64, 32], "dtype": "float32"}, {"name": "dense/bias", "shape": [32], "dtype": "float32"}, {"name": "dense_1/kernel", "shape": [32, 16], "dtype": "float32"}, {"name": "dense_1/bias", "shape": [16], "dtype": "float32"}, {"name": "dense_2/kernel", "shape": [16, 2], "dtype": "float32"}, {"name": "dense_2/bias", "shape": [2], "dtype": "float32"}, {"name": "lstm_1/lstm_cell_8/kernel", "shape": [128, 512], "dtype": "float32"}, {"name": "lstm_1/lstm_cell_8/recurrent_kernel", "shape": [128, 512], "dtype": "float32"}, {"name": "lstm_1/lstm_cell_8/bias", "shape": [512], "dtype": "float32"}, {"name": "lstm_2/lstm_cell_9/kernel", "shape": [128, 256], "dtype": "float32"}, {"name": "lstm_2/lstm_cell_9/recurrent_kernel", "shape": [64, 256], "dtype": "float32"}, {"name": "lstm_2/lstm_cell_9/bias", "shape": [256], "dtype": "float32"}]}]}